dnn/saved_models/ddd_cnnlstm.tflite (tflite, 55948 bytes, 19 tensors)

sequential/time_distributed/conv2d/BiasAdd/ReadVariableOp f4 [8]
000000 e6 f3 12 bd 26 a0 07 3c 05 4f 4f bc 62 00 b4 bc
       -0.03587713 0.008277928 -0.012653117 -0.021972839
000010 cd 06 aa bb 5d 38 04 3d 86 a0 5d 3b f2 a0 84 bc
       -0.005188799 0.032280315 0.0033817603 -0.016190026

sequential/time_distributed_3/conv2d_1/BiasAdd/ReadVariableOp f4 [16]
000000 d6 4b b7 3b e0 97 28 bd 71 99 15 bc 30 f4 8b 3d
       0.005593757 -0.041160464 -0.009130822 0.068336844
000010 5a 4a f0 3c 58 9c 0b bd f8 c4 b0 bd 6d b7 19 3d
       0.029332329 -0.034084648 -0.08631319 0.037528444
000020 35 c9 13 3d 48 49 b5 3c e6 2f e6 3c 29 d7 9f bc
       0.036080558 0.02212967 0.028099012 -0.019511776
000030 16 f1 05 bd 11 04 70 bd 4e 39 e9 3c 88 d0 7e bd
       -0.03270062 -0.058597628 0.028469708 -0.06221059

sequential/time_distributed_6/conv2d_2/BiasAdd/ReadVariableOp f4 [32]
000000 85 c0 0b bc b4 fe ce bd ee fa a7 bd d6 fc a8 bd
       -0.008529787 -0.101071745 -0.08202158 -0.0825135
000010 90 ab b9 bd 9e aa ac 3b 1c a5 6a bd 65 3d 11 bd
       -0.09065926 0.0052693626 -0.057286367 -0.03545894
000020 bb fe dc bc 70 88 0f 3d 5a ee b2 bc 75 66 d8 3d
       -0.026976934 0.035042226 -0.02184217 0.10566417
000030 5c 3e aa bd c4 b6 76 bd 6b 59 a4 bd 84 a2 11 bd
       -0.08312675 -0.060232893 -0.080248676 -0.035555378
000040 af 06 61 3c 75 30 07 be e9 a6 93 bd 26 cf 8d 3d
       0.013734504 -0.13202079 -0.0720957 0.06924276
000050 6e 83 8f bd 91 31 33 bd 13 89 4b bd 65 ea 91 bd
       -0.0700749 -0.043748442 -0.04969127 -0.07124785
000060 98 8a 5f bc 5b f5 eb bd dc 01 67 bd 64 df 5c 3d
       -0.013643883 -0.11521407 -0.056398258 0.05392398
000070 62 e5 04 bd ab cb 38 bd 14 2d ad bc 7c 3f 47 bd
       -0.03244532 -0.045116108 -0.021139659 -0.048644528

sequential/time_distributed/conv2d/Conv2D f4 [8, 3, 3, 3]
000000 dd 5e 3d 3e db f8 8a 3d ce b9 61 be 35 94 35 3e
       0.18493219 0.06785747 -0.22043535 0.17732318
000010 3b 42 90 3d a6 3f 64 be d8 8a 0d be 27 80 01 3c
       0.070438825 -0.22289905 -0.13822496 0.007904089
000020 95 53 b5 3d b0 07 74 bc bd 09 ab bc da a7 62 3e
       0.08853833 -0.014894411 -0.020878667 0.22134343
000030 98 44 40 3e 3e 2f 09 be 74 a7 56 3e c5 9f 3b be
       0.18776166 -0.13396928 0.20962316 -0.18322666
000040 19 25 4d 3b fb c3 56 3d d9 9c 78 be d2 2f ab 3d
       0.003130263 0.052432995 -0.24278583 0.083587304
000050 69 7e 71 3e a6 53 5e bd f4 47 2a 3e d2 35 d6 3d
       0.23583378 -0.054278992 0.1662901 0.10459484
000060 b9 56 1c be b6 34 3a be 6c d0 3b 3e 5f 27 88 bd
       -0.15267457 -0.1818417 0.18341225 -0.066481344
000070 72 08 64 be 33 f1 5e be 55 55 80 be d8 98 3a be
       -0.22268847 -0.21771698 -0.25065103 -0.18222368
000080 af ff d6 3d d0 5e 91 bd 73 d0 72 3e 22 ba c9 3d
       0.104979865 -0.07098162 0.2371233 0.09849955
000090 56 11 95 bd 90 cf 26 3d 9e 6c 73 be 90 ba 36 bc
       -0.07278697 0.04072529 -0.23771903 -0.011152878
0000a0 a1 c0 5a 3d 32 aa 26 be 8a 1b 82 be bb f6 48 3d
       0.05340636 -0.16275862 -0.25411636 0.049063426
0000b0 fe 50 92 be 45 ab e0 3d 82 1f 8f 3e 92 a6 43 3e
       -0.28577417 0.10970167 0.27953726 0.1910651
0000c0 94 05 3f be e7 d0 87 bd f5 2d a0 3c f7 01 bb bb
       -0.18654472 -0.06631642 0.019553164 -0.0057070213
0000d0 4a 4d 8a be 19 1e 7c be e6 dc bd 3d c3 99 fe bd
       -0.27012092 -0.24620856 0.09270649 -0.124316715
0000e0 d5 1d 0e be a5 b0 dd 3d 1c e8 4d bd 91 e5 46 3e
       -0.13878568 0.10824708 -0.050270185 0.1942351
0000f0 76 64 2f 3c 78 30 64 3e 54 91 14 be 5e ac 01 be
       0.010705104 0.22284114 -0.14508563 -0.12663409
000100 32 9b 51 be ea a0 8f 3d ed 93 28 3d 9e 50 bb bd
       -0.20469359 0.07013114 0.041156698 -0.09146236
000110 65 3b 82 be eb 61 98 3d 98 4e 4e 3e 0b e7 82 bd
       -0.2543594 0.07440551 0.20147169 -0.06391724
000120 8f 62 9a 3d 55 77 49 be 6b 3e dc 3c 2d 70 1f 3e
       0.0753833 -0.19674428 0.026885232 0.15570135
000130 50 67 99 3d d1 fd 32 bd 9f a8 cc 3d b9 cd 07 be
       0.074904084 -0.04369909 0.099930994 -0.1326207
000140 e3 d9 ba 3d 3f af 4a 3d 39 bb 74 be 96 90 3d 3e
       0.0912359 0.049483534 -0.23899545 0.18512186
000150 fa ca 2a bd 3c 37 45 3e 28 e6 17 be fa 81 1e 3d
       -0.04169748 0.19259351 -0.14833891 0.038698174
000160 7a b3 82 be e3 8f 0e be 88 3d 07 be 36 8c a9 3d
       -0.25527555 -0.13922076 -0.13207066 0.08278696
000170 d9 26 69 3e 70 28 69 bc e9 6b a8 bd 45 64 dc bc
       0.22768725 -0.014230832 -0.08223707 -0.026903281
000180 55 a9 5d be e0 8f ad bd 13 9a f3 bd 98 a6 35 be
       -0.21646626 -0.084747076 -0.11894622 -0.17739332
000190 71 d4 1f be 0f 04 6f bd 99 d7 80 bd 0c fc 64 be
       -0.15608384 -0.05835348 -0.06291122 -0.22361773
0001a0 6a 75 ed bc 56 53 07 3c dc 13 10 bc 9f 42 88 bd
       -0.028986651 0.008259615 -0.008793797 -0.06653332
0001b0 53 ec 32 be d8 69 46 3e 0c f7 3b be 33 cf 3e be
       -0.17472963 0.19376314 -0.1835596 -0.18633728
0001c0 28 ea 67 bc 69 82 14 b9 f4 90 11 be 34 10 49 3d
       -0.014154948 -0.00014162961 -0.14215451 0.049087718
0001d0 f1 5c 59 3e 6f 2e 33 3e 06 73 e1 3d d8 bf 7a bd
       0.2122686 0.17498182 0.11008267 -0.061218113
0001e0 9b bc d9 3d 8f 68 16 3d 5e f6 09 be c6 ce d7 bd
       0.10631677 0.03672081 -0.13472888 -0.10537486
0001f0 bf 0c fb bd 70 b3 c3 3d 50 a7 7b be 48 86 69 3e
       -0.122582905 0.09555709 -0.24575543 0.2280513
000200 7b da 80 3d 4a db 39 3e c0 e5 59 3e e2 d3 b0 bc
       0.06291672 0.18150058 0.21279049 -0.021585409
000210 bd d1 d3 3b 47 01 dc bd b0 03 e7 3b 3b b6 87 bd
       0.0064642117 -0.10742431 0.00705 -0.066265546
000220 75 61 1e be 0f 9d 72 be 41 06 47 bc a8 ac dc bc
       -0.15466864 -0.23692726 -0.012147487 -0.026937798
000230 f4 67 42 3e b0 d9 fe 3d ff a2 33 3e 6d e8 d8 bd
       0.18984967 0.12443864 0.17542647 -0.10591207
000240 6e 53 33 3d a0 82 23 3e 55 ec 68 be 5a 65 f2 bd
       0.043780737 0.15967798 -0.22746404 -0.118357375
000250 1a 43 81 3e 24 df c7 3d fc 8b 02 3e 9a 59 28 bd
       0.25246507 0.097593576 0.12748712 -0.041101076
000260 a1 a4 7f be a8 99 1b be c9 8b 4d 3e ef 89 d6 3d
       -0.24965145 -0.15195334 0.20072855 0.104755275
000270 57 96 01 3e 82 ee fa bd c8 33 3a be c8 b9 11 3e
       0.12655006 -0.12252523 -0.18183815 0.14231026
000280 c4 ce 93 3d b2 e2 c1 bd 09 9d d5 3d e9 4a 21 be
       0.07217172 -0.09467067 0.10430343 -0.15751232
000290 ad b0 09 3e 7e 80 62 3e 53 82 5d 3e a4 43 14 3e
       0.13446303 0.22119328 0.21631746 0.14478928
0002a0 05 a6 2c be 4d 5a 8a 3d d4 71 1e 3d 13 fa 8b be
       -0.16860206 0.06755505 0.038682774 -0.2733923
0002b0 2e fb c1 3d dc 66 96 bd 78 40 08 3e 78 3f 13 be
       0.09471737 -0.073438376 0.13305843 -0.1437968
0002c0 cd b2 dd 3d f4 84 5a bc 83 6e 9b 3d dc 01 0f 3e
       0.10825119 -0.013337363 0.07589438 0.13965553
0002d0 f9 97 08 be 96 cc ee bd 1e 41 9f 3d bc 2a 18 3e
       -0.13339223 -0.116601154 0.07776092 0.14860052
0002e0 1a ac 5d bd a8 8d e8 3d e8 f2 14 3e 01 44 10 3d
       -0.054119207 0.11355144 0.14545786 0.035221104
0002f0 c3 de 75 3c 10 6f 95 3d 28 18 47 be 4d ee bd 3c
       0.015006724 0.07296574 -0.19442809 0.02318492
000300 78 b7 47 3d 70 66 1b be a9 22 96 3c dd 91 9f bd
       0.048758954 -0.15175796 0.018327074 -0.07791493
000310 3a b6 e2 bd 49 9c 13 be ab b0 2c 3e 9f 9d 8e bc
       -0.11069913 -0.14415087 0.16864268 -0.017409144
000320 5b dd 67 be 1e 98 5f 3e c1 1d b8 3d a1 00 84 be
       -0.22643034 0.21835372 0.0899005 -0.2578173
000330 c1 05 20 be 64 5e 2c 3d 92 06 54 3e 83 fc ad 3b
       -0.15627195 0.042082205 0.20705631 0.0053096428
000340 9b c6 03 3e fe ba 6e 3e 45 29 0f 3e d6 c4 b9 bd
       0.1286873 0.2331352 0.13980587 -0.090707466
000350 2a a7 9a 3c 46 9d 23 3e 73 00 8d bd a5 97 72 3d
       0.018878538 0.15977964 -0.06884851 0.05922665

sequential/time_distributed_3/conv2d_1/Conv2D f4 [16, 3, 3, 8]
000000 01 26 b9 3d bf 03 89 bd 8c 93 32 3e 41 d1 c7 3c
       0.09040452 -0.06690168 0.17439097 0.024391772
000010 95 f2 29 3e 97 b5 b2 3d be 44 db 3d d6 ca a6 bd
       0.16596444 0.08726042 0.10706471 -0.08144157
000020 41 81 ec bc 65 d8 40 3d c6 62 c5 3b 0b 22 28 be
       -0.028870227 0.04708137 0.0060237376 -0.16419236
000030 ba 07 4d 3d 37 e7 53 3d 1e 5c cd 3d 58 b0 db 3d
       0.050056197 0.051734176 0.100273356 0.10726994
000040 77 89 01 be bf 61 50 3e f7 c7 cf bd 1f ae d1 3d
       -0.12650095 0.20349787 -0.10145562 0.10238289
000050 b5 45 9c bd b6 c7 8c bd d2 fa 11 be 91 4e cb 3c
       -0.07630483 -0.06874029 -0.14255837 0.024817737
000060 9a 7a de bd fc 0b ad 3c 3c 78 23 3e b9 7c 61 3d
       -0.10863228 0.021123879 0.15963835 0.055050585
000070 35 11 cd 3c 57 5e 64 bd 15 fc ba bd c6 54 0a 3e
       0.025032619 -0.055754032 -0.09130112 0.13508901
000080 1d b3 aa 3d 73 57 e2 bd 07 35 0f bd b9 1b 25 3e
       0.083349444 -0.11051836 -0.03496268 0.16123857
000090 71 48 04 be ff 17 92 bc e5 57 e7 3d f7 e3 d3 bd
       -0.12918259 -0.017833708 0.112960614 -0.10346215
0000a0 d1 04 7b bd 11 23 4a bb 95 4d 1d bc b2 32 90 3d
       -0.06128389 -0.0030843655 -0.0096010165 0.07040919
0000b0 d1 9b de 3b 14 30 11 be 33 cd 37 3b 73 a5 9d bd
       0.006793477 -0.14178497 0.0028045892 -0.076975726
0000c0 bf e5 b0 3d 2d 8d 81 3c 94 56 96 bd 74 83 d9 3b
       0.086375706 0.015814388 -0.07340732 0.006637985
0000d0 1b c0 17 3e bc e5 a2 bd f7 87 26 3e c5 5f 09 be
       0.14819376 -0.079539746 0.16262804 -0.1341544
0000e0 8b 22 81 bb 83 e0 23 3d 96 bb b9 3c 1d ea 76 bd
       -0.0039408854 0.040009033 0.022672456 -0.06028186
0000f0 21 f1 90 3c c8 fa d2 bd 05 4d a4 3d 23 7f 1b 3d
       0.017693104 -0.10301739 0.08022503 0.037963044
000100 4e 78 b2 3c 48 6a b4 bd fb ea 2c 3c 63 b7 11 3e
       0.021785881 -0.08809334 0.010554071 0.14230113
000110 53 9d d7 3d 25 3e 97 3d 74 56 ca bb bf 52 d2 39
       0.10528054 0.073849 -0.006174857 0.00040115972
000120 74 69 11 bd aa 3a f1 bd 91 9a 3a 3e 8b 94 8c 3d
       -0.03550096 -0.117787674 0.18223025 0.0686427
000130 0c bc ab 3d e2 e3 a4 bd a5 9f e4 bc 00 a3 a4 3d
       0.083854765 -0.08051278 -0.027908156 0.08038902
000140 15 ea 21 3e c2 c2 2a bd b6 6a b6 3c 9c 81 43 be
       0.15811951 -0.04168964 0.02226768 -0.19092411
000150 3b fd 05 3e c9 aa 34 3e 7e 1c ba bd 60 c5 8b bc
       0.13084881 0.17643274 -0.09087466 -0.01706189
000160 0d a7 23 3c 73 16 1f 3e be 46 ed bd 58 2a 7b bd
       0.0099885585 0.15535907 -0.115857586 -0.06131968
000170 9b 3c 9c 3c b0 4c d7 3b 7d c5 39 3d 2c 1d ac 3b
       0.019071868 0.006570421 0.045354355 0.005252501
000180 b8 58 34 3d ea 56 2a be 4e ba 2c bd 8d 0e da bd
       0.04402992 -0.16634718 -0.04216986 -0.106473066
000190 1d 5f 47 3d 73 ce b8 3c 87 e6 b2 3d b0 49 25 3e
       0.04867469 0.02255938 0.08735376 0.16141391
0001a0 ec f0 8d bd 71 0f c0 bd 1b 59 87 bd 3a 3b 45 be
       -0.06930718 -0.09377945 -0.066087924 -0.19260874
0001b0 bd 03 22 be 6d ca dc 3c 1a bf cc ba 74 a8 29 3d
       -0.15821739 0.026951993 -0.0015620918 0.041420415
0001c0 a9 57 a5 3d ea 39 43 bd b7 a8 08 bd de 64 25 be
       0.080733605 -0.047662653 -0.033364024 -0.16151759
0001d0 71 3e ec bd 6e 3a b7 3d 41 e9 a9 3d c1 10 91 3d
       -0.11535347 0.089466915 0.08296443 0.07083274
0001e0 5d 13 0d 3c e1 76 ae bd 0d 59 f5 3d 11 87 07 be
       0.008610574 -0.08518768 0.11979876 -0.13235117
0001f0 fb c8 14 3e 09 f6 0f be 2a cc cc 3c 9b 5a bc 3d
       0.14529793 -0.14058699 0.024999697 0.09196969
000200 ce 81 b0 3d 8e 6b e8 bc 5f 52 f9 bd 02 76 d0 3d
       0.08618508 -0.028371599 -0.12173914 0.10178758
000210 87 83 6a 3c d8 b0 da bb 2d 4c 17 3b 3b c1 c0 3d
       0.014313585 -0.0066739134 0.0023086176 0.09411856
000220 fc 17 a4 3d 96 b0 98 bd d7 37 9f bd 5c 10 22 bd
       0.08012387 -0.07455556 -0.077743225 -0.039566383
000230 a0 85 9c 3d e6 69 07 3e 52 1d 91 3c 02 a5 14 bc
       0.076426744 0.13223991 0.017714176 -0.009072544
000240 78 8b da bd 7f 90 e2 3b b3 27 ad 3c 8a 00 8e bd
       -0.10671133 0.006914198 0.021137094 -0.069336966
000250 93 63 ea bc c9 4f ce bd fc da 14 be b7 ad 57 bd
       -0.028611934 -0.100738116 -0.14536661 -0.0526559
000260 cf 36 da bd 76 0a 68 3d df 94 b8 bd 71 b1 77 3d
       -0.10654985 0.0566506 -0.0901277 0.060471956
000270 e2 cc 44 be c5 04 7e bc d6 26 cb 3d 1b b2 10 bd
       -0.19218782 -0.015504067 0.09919517 -0.035326105
000280 5f 6f 4d 3d c0 d9 bd bd 19 33 22 3c 21 8a 35 3c
       0.05015504 -0.09270048 0.009899878 0.011080296
000290 ce 8c 24 be 96 83 6a bc 60 04 cb bd b8 38 6d 3d
       -0.16069338 -0.014313599 -0.09912944 0.05791542
0002a0 4e b2 2b be 78 81 0a be 48 a4 f6 bd 3e ca 21 3b
       -0.16767237 -0.13525951 -0.12043053 0.0024687196
0002b0 cc 64 4d be c1 e0 20 be a8 b4 2b 3e bf 9a 26 3b
       -0.20057982 -0.15710737 0.16768134 0.0025421826
0002c0 70 ce 01 be 7b 8f 4b 3d b8 50 87 bd 08 e5 b7 bd
       -0.12676406 0.04969738 -0.06607193 -0.08979231
0002d0 02 3a 8d 3d cc 66 a1 bb a5 c5 68 bd a3 8d 19 be
       0.0689583 -0.0049255844 -0.056829114 -0.14995436
0002e0 3b b4 c6 3c cd 88 0c bd 09 fe d2 3d 01 8c 0f 3d
       0.024255862 -0.03431015 0.103023596 0.035045628
0002f0 5b 61 b1 bc c9 75 0d be f5 ab 97 3d 54 e7 01 3e
       -0.021652868 -0.13814463 0.07405845 0.12685901
000300 03 ff bc 3b 32 af a8 bc bd 9a 23 3e ac 2d f5 3d
       0.0057677045 -0.020591352 0.15976997 0.11971602
000310 36 35 ea bd 44 62 c7 3d 59 6b 72 bd 70 16 0f bd
       -0.114359304 0.097355396 -0.059184406 -0.034933507
000320 74 e0 9d bd 4f 84 78 3c 72 fc c4 bd 28 43 3e be
       -0.07708827 0.015168264 -0.096184626 -0.18580306
000330 e8 42 84 3c 41 fd 97 bd cc 3d 24 3e e8 0d 02 3e
       0.016145185 -0.07421351 0.16039199 0.12700617
000340 93 6a b9 bd 01 01 84 bd 74 2c 30 bd 97 a2 f7 3d
       -0.090535305 -0.06445504 -0.043011144 0.120915584
000350 1b 13 fd bd 52 50 5e bd 49 89 4d 3e 71 b3 6d bb
       -0.1235716 -0.05427582 0.20071901 -0.0036270285
000360 d5 c7 6a bd 80 2f 9a bd 0a 38 d2 bd 0a cd 74 3c
       -0.05731948 -0.07528591 -0.10264595 0.014941463
000370 bf da 7c 3d 4d 6e ca 3c 5a b5 b1 bd ad 22 1a be
       0.06173205 0.024710799 -0.08677168 -0.1505229
000380 e5 56 bc 3d 64 30 07 3d 3e 45 0d 3e bc fc 1f 3e
       0.09196261 0.033005133 0.13795945 0.15623754
000390 3a 0e bd 3d 72 2c 2b be b6 14 1a be 9b 34 c5 bb
       0.09231229 -0.16716173 -0.15046963 -0.006018234
0003a0 3a 1e ae 3d 05 21 f3 bd fd 5d 10 be 37 c3 d4 3d
       0.08501859 -0.11871532 -0.14098354 0.10388797
0003b0 1e 0a a3 bd 5f a2 2a be d5 44 dc 3d ef 65 44 3d
       -0.07960914 -0.16663502 0.10755316 0.047948774
0003c0 30 5f ec 3d 38 aa 93 bd af a4 3f 3e b5 2a 09 3e
       0.11541593 -0.07210201 0.18715166 0.13395198
0003d0 bd 06 d5 3d 24 2b 0c 3e 2f 08 05 be 89 72 fa 3d
       0.10401676 0.13688332 -0.12991403 0.12228877
0003e0 69 66 05 be 0c 4c 29 be 99 7f 0d bd 3a a3 49 3e
       -0.13027348 -0.16532916 -0.034545515 0.19691172
0003f0 49 9f 2c be 32 1b 1a be 03 3b dc 3d a8 3d 2d bd
       -0.16857637 -0.15049437 0.10753443 -0.042295128

sequential/time_distributed_6/conv2d_2/Conv2D f4 [32, 3, 3, 16]
000000 a7 58 14 3d ea 33 ea 3b 88 c2 7b bd d3 38 3c bd
       0.036217358 0.007147302 -0.061464816 -0.04595263
000010 b4 a9 25 bd 01 6b f0 3c 8f 9c 82 3d 46 c7 96 3b
       -0.040445045 0.029347898 0.063775174 0.004601392
000020 01 f2 b8 3d db c6 d2 bd a7 e7 07 be 1a e9 e0 bd
       0.090305336 -0.10291835 -0.13271962 -0.109819606
000030 6e 22 c6 3d 89 f2 dd bd 1b 92 91 bd f3 3c 1d 3d
       0.09674536 -0.108372755 -0.071079455 0.038388204
000040 4b f6 fb 3c 02 b1 c4 3d 61 ab 73 3d 2d d4 08 3d
       0.03075709 0.09604074 0.05948961 0.03340547
000050 bc ea 2e bd 75 64 0c 3c 9c 42 c0 3d 2b 9e 9b 3d
       -0.04270433 0.008568873 0.09387705 0.075985275
000060 42 79 f4 3c f7 79 ef 3d d0 1e 1c 3d 86 76 8c bd
       0.029842976 0.11693185 0.038115323 -0.06858544
000070 83 86 93 bb 81 19 89 3d 65 39 d5 3c 45 f5 7b 3b
       -0.004502119 0.066943176 0.026028344 0.0038445753
000080 54 d2 e7 bc 7f 99 22 bc 74 9d e9 3c b4 52 5a 3d
       -0.028298534 -0.009924292 0.028517462 0.053301528
000090 fc 62 02 3d 46 08 8c bd 24 6a a5 bd 04 b8 cd bd
       0.03183268 -0.068375155 -0.08076885 -0.10044864
0000a0 17 3d f2 bd cb 69 90 3d 46 51 00 bd d6 ef 9e 3d
       -0.11828058 0.070514284 -0.03132751 0.07760589
0000b0 b1 fc 9c bd 23 b0 2d 3b 21 e1 a5 3d cc 60 f5 bd
       -0.076653846 0.002650269 0.080995806 -0.11981353
0000c0 ef 1c aa 3c c2 1b 57 bc 87 65 63 bd ce 76 c1 3d
       0.02076575 -0.013129177 -0.055516746 0.09446488
0000d0 ba 1e b6 3d 9e f0 69 3d d8 80 94 bd d8 b7 a5 bd
       0.088925794 0.057114236 -0.072511375 -0.08091706
0000e0 0c b5 3a bc c5 d3 b0 bd 41 c3 30 3c 14 24 7d bd
       -0.011395704 -0.08634142 0.01078874 -0.061801985
0000f0 73 0b e1 3c da de ba 3c 29 b1 19 3d 32 3f 15 be
       0.02747128 0.022811342 0.03752247 -0.14574888
000100 0b f0 de bd dd 6d 03 be 70 bf 9a 3c 4a 56 c6 bd
       -0.10885628 -0.12834878 0.018890113 -0.09684427
000110 d7 45 a3 bd 17 21 c2 3c ae da a2 bd 4a 56 9d 3b
       -0.07972305 0.02369742 -0.07951866 0.004801546
000120 61 fd be bd cf 07 2e bd ea b8 36 3d 08 82 1c bd
       -0.09325672 -0.042487916 0.04460994 -0.038209945
000130 7f 60 27 bd 84 95 86 bd de 8f e7 3c b4 dd 3a 3d
       -0.04086351 -0.065714866 0.028266843 0.04562159
000140 de 8f 8c bd bd e9 bf bd 8e c8 c4 bb b4 81 a0 3d
       -0.06863378 -0.09370754 -0.0060053533 0.07837239
000150 71 dc d0 bc 7c 8c 41 bc b3 b0 ab 3d 43 04 43 bd
       -0.02549574 -0.011813279 0.08383312 -0.047611486
000160 53 bc 8d 3d 7c fa 54 bd 75 5b 1d 3e 00 f8 64 bd
       0.069206856 -0.051996693 0.1536692 -0.055900574
000170 55 fb bb 3d b8 79 31 bc 6d 30 86 bc bd 48 4a bb
       0.09178797 -0.010832243 -0.016380513 -0.003086611
000180 eb c6 eb ba a5 e2 6c bd 0e af 0b 3d 8d ee c4 3b
       -0.0017988359 -0.057833333 0.034102492 0.006009883
000190 33 e1 47 3d 6d 63 14 bd a9 75 ce 3d 70 73 2b 3d
       0.04879875 -0.036227632 0.10081036 0.041858137
0001a0 0c 7a 23 3d b9 d8 14 3d 61 b8 40 3c ce 01 a8 3b
       0.039911315 0.036339495 0.011762709 0.0051271683
0001b0 cb f7 29 bd 8f 8d 75 3d 59 ba 73 bd ec 02 4c 3c
       -0.04149608 0.059949454 -0.059503887 0.0124518685
0001c0 33 79 c8 bd 52 92 86 3d b2 02 95 bc ea b2 1d bc
       -0.09788742 0.06570877 -0.018189762 -0.009625176
0001d0 8b 46 27 3e 22 ae 35 3c 1f 04 db 3d 34 13 f3 3c
       0.16335504 0.01108888 0.106941454 0.029672243
0001e0 b9 df 70 bd e6 5d c5 bd 3d 0c 6b bd 0a 28 de bd
       -0.05880711 -0.0963705 -0.05738472 -0.108474806
0001f0 e1 39 e7 bc 01 d3 0d 3d 96 c5 8c bd 51 d4 37 bc
       -0.028225841 0.034625057 -0.06873624 -0.011220054
000200 28 5f 12 bc 83 f0 c4 3d e8 95 0b be bc 64 c7 3c
       -0.00893382 0.096161865 -0.13631403 0.024340026
000210 e0 13 1c bd 1b e3 8f 3c 00 59 19 bd 45 6f 57 3b
       -0.03810489 0.017564347 -0.037438393 0.0032872718
000220 ac b9 e3 bd 6b 53 31 bc 42 c7 12 bd 1f 11 01 be
       -0.111193985 -0.010823111 -0.03583456 -0.12604187
000230 dc e8 ef bd 94 5a a7 bd d6 db 5c bd 01 84 90 bd
       -0.11714336 -0.08171573 -0.05392059 -0.07056428
000240 2e 16 ba 3d 5c 82 76 bd 1c cd c6 3d 91 8d 18 3d
       0.09086262 -0.060182914 0.0970709 0.037244383
000250 4f 71 a9 3d 40 da 92 3d dd 0d c1 bc 42 80 91 bd
       0.08273565 0.07170534 -0.02356618 -0.07104541
000260 37 5f 09 3d 73 c3 a6 3d ea 5f 02 3d 24 51 36 ba
       0.03353807 0.08142748 0.031829752 -0.000695484
000270 bc d7 e1 3d c1 58 a4 3d 8c 3c e2 bc 24 66 c7 3c
       0.11027476 0.08024741 -0.027616762 0.024340697
000280 d5 63 6b 3b c0 41 e5 3c 01 49 e7 3c 0f 0a 36 bd
       0.0035917659 0.027985454 0.028233053 -0.044443186
000290 4e 08 df 3d 2e e1 f2 bc 52 e3 b3 3c f7 ad 47 3d
       0.10890256 -0.02964839 0.02195898 0.04874989
0002a0 e3 59 8d 3d ca be 2b bd 2a 40 07 3d ab 2f 03 bd
       0.0690191 -0.041929998 0.033020176 -0.03202788
0002b0 e4 9e 42 bd d7 9f 72 bb 97 3f d6 3d 73 d2 d2 bd
       -0.04751481 -0.0037021542 0.104613476 -0.10294046
0002c0 93 f3 10 3e 26 b4 88 bc f6 8c 06 3e b6 d1 5d 3d
       0.14155416 -0.016687464 0.1313971 0.054155074
0002d0 f0 d5 6e 3d 48 fb 95 3d 1d e3 bd 3d 6e 65 04 3d
       0.058309495 0.07323319 0.09271834 0.032323293
0002e0 3f 37 ab bb 1f 34 27 bd 80 ad 13 3d cd b1 89 bd
       -0.0052250917 -0.04082119 0.036054134 -0.06723366
0002f0 2d cc 0f 3e cd 2e d0 3c a2 be 16 bd ec f9 34 bc
       0.1404273 0.025412941 -0.036802895 -0.011045914
000300 25 f0 c1 3d e6 b9 0f bd 9f e2 f3 ba 4f 49 9a bd
       0.09469632 -0.035089396 -0.0018606967 -0.07533514
000310 3a 2e c1 3d 57 c2 97 3d 0d 6b f6 3d 0e 7c e4 bd
       0.09432645 0.07410114 0.12032137 -0.11156474
000320 57 d3 42 3d 6a 98 bc 3d 2e ce 78 bd c3 37 a9 bb
       0.04756483 0.09208758 -0.060743503 -0.005164118
000330 26 d8 d9 3d b4 90 aa bd e5 65 0a 3e b5 48 2c 3d
       0.1063693 -0.08328381 0.13515432 0.042061526
000340 bd 68 4b bd 4a f2 8a 3d a4 4f e0 bc 4b 0a 2a 3d
       -0.049660433 0.06784494 -0.027381726 0.041513722
000350 06 0c 85 bd b4 d7 86 3d 3b 36 8b bd da 98 6d bd
       -0.06496434 0.06584111 -0.06797453 -0.0580071
000360 9d 4b 75 bd 9a ed cd bc e7 41 18 3d f8 8e d6 bd
       -0.059886564 -0.025137711 0.037172224 -0.10476488
000370 9e 1a 7a 3c eb 20 d1 bd ea 8d b5 ba a6 7c b1 bd
       0.015265135 -0.10211357 -0.0013851498 -0.08666353
000380 2c 7b 3b 3c 8d 6e a2 bd 37 87 9d 3d 29 55 cf 3d
       0.011442941 -0.07931242 0.07691806 0.10123665
000390 95 72 90 3d 59 6b 49 3c 22 67 c7 bd cd 0d a6 3c
       0.07053105 0.01229366 -0.09736468 0.020270253
0003a0 dc 7a 8f 3c d9 43 26 3d d2 81 7f bd 95 05 03 bc
       0.017514639 0.04059205 -0.062379666 -0.007996936
0003b0 df 59 bb 3d 4d 90 99 bd 6e 9c 9d 3d f9 ef 73 bd
       0.09148001 -0.07498226 0.07695852 -0.059555028
0003c0 2b a2 4f bd ca da aa 3b 74 8a fc bc e8 ab 29 bd
       -0.050691765 0.00521407 -0.030827738 -0.04142371
0003d0 7b 02 53 bd 7e 4b be bd f3 4e 1d bd ec 06 64 bd
       -0.051516037 -0.09291743 -0.03840537 -0.055670664
0003e0 91 1f db 3d 04 c7 9f bd a7 eb e5 bd fe 37 58 bd
       0.1069938 -0.07801631 -0.11226588 -0.052787773
0003f0 da 18 6c 3d a1 48 aa bd 0b 9e 31 3d 1f 14 be bc
       0.057640888 -0.08314634 0.043363612 -0.023202954

sequential/lstm/Read_2/ReadVariableOp f4 [64]
000000 2f ad 5b 3d 57 4d 9c 3d c7 cd 07 3e 82 b7 d8 3d
       0.053631958 0.07631939 0.13262092 0.10581876
000010 fe 56 83 3d cc 43 0d 3e a1 26 f9 3d e9 9d 0e bd
       0.06413077 0.13795394 0.12165571 -0.034818564
000020 5c 08 03 3e b3 a0 9f 3d 3a 46 d3 3c f0 5b 91 3d
       0.12796158 0.07794323 0.025790323 0.07097614
000030 71 56 73 3d 57 c2 50 3d cf b9 d6 3c ea 0e 03 3e
       0.05940861 0.050966587 0.026211647 0.12798658
000040 6e 83 81 3f 0a 26 70 3f 8e 12 66 3f b3 01 6a 3f
       1.0118234 0.93808043 0.8987206 0.9140884
000050 7e 41 85 3f 1c 7b 69 3f 2b 58 6c 3f 4b be 82 3f
       1.0410612 0.91203475 0.92322034 1.0214323
000060 2c 35 68 3f fb 39 85 3f b6 ce 85 3f fa 7c 6c 3f
       0.90706134 1.0408319 1.0453708 0.923782
000070 c7 72 84 3f bd 09 72 3f b2 53 7e 3f 1b 4e 67 3f
       1.0347527 0.9454611 0.9934646 0.90353554
000080 ab a0 2a 3d c4 e7 97 3c 6d 09 db bc 35 7c 5e 3b
       0.04165713 0.018543132 -0.026737893 0.0033948545
000090 39 08 0e bd 1f 8b 31 bc 14 d5 c8 bc 51 fd a4 3c
       -0.03467581 -0.010836392 -0.024515666 0.020140322
0000a0 b6 76 2d bd cd e8 2b bd ad 21 3c bd 7a 39 19 bd
       -0.04234954 -0.041970063 -0.045930553 -0.03740833
0000b0 cc dd ce bc fb 3e dd bc bd 12 2f bd 62 3b 89 3c
       -0.025252245 -0.02700757 -0.04274248 0.016751949
0000c0 d2 46 8c 3c ec e1 40 3d 0f dc 14 3e a8 1d e8 3d
       0.017123614 0.047090456 0.1453707 0.113337815
0000d0 38 37 4f 3d 21 c3 0d 3e 88 b1 fe 3d 8b 8e 6f bd
       0.05058977 0.13843967 0.12436205 -0.05848555
0000e0 e0 b3 00 3e 2a 1d ab 3d 52 3a 0b bc e5 d4 92 3d
       0.12568617 0.08355172 -0.008497791 0.07169513
0000f0 2f 4f be 3c 4c 64 fc 3b 96 3c ab 3b d1 72 00 3e
       0.023231117 0.007702386 0.0052257283 0.12543799

sequential/dense/BiasAdd/ReadVariableOp f4 [8]
000000 92 0a 83 3d a9 27 fe bc ee 98 57 3d 1d 3d 6c 3d
       0.063985005 -0.03102477 0.05263608 0.05767547
000010 98 01 22 3d 6c 37 92 3d af bb e8 bb 06 6c 72 3d
       0.0395523 0.07139477 -0.0071024518 0.05918505

sequential/time_distributed_1/batch_normalization/FusedBatchNormV3 f4 [8]
000000 ae c5 15 41 d3 ce 07 42 df 8a 6e 41 8a b4 06 42
       9.360762 33.951977 14.908904 33.676308
000010 78 b3 88 41 09 5f 80 41 f6 79 a1 40 6e cb 43 41
       17.087631 16.046404 5.046138 12.237165

sequential/time_distributed_1/batch_normalization/FusedBatchNormV31 f4 [8]
000000 a9 d3 69 bf ad 55 01 bd b5 15 6c bf 21 54 8c 3d
       -0.9133859 -0.031575847 -0.9222062 0.06851984
000010 69 5c f9 be dc 68 c9 bf a4 b7 d5 bf 13 a4 bd bf
       -0.48703316 -1.5735126 -1.6696668 -1.4815696

sequential/time_distributed_4/batch_normalization_1/FusedBatchNormV3 f4 [16]
000000 48 09 1a 40 32 f1 c9 3f d6 ee 60 40 6d 6c 82 40
       2.4068165 1.5776732 3.5145774 4.0757356
000010 b3 6c b7 40 36 11 90 40 14 6d 50 40 67 e4 ab 40
       5.732019 4.502101 3.2566576 5.371631
000020 0a fe 8e 40 98 d7 3a 40 f5 ba 0b 40 02 30 04 41
       4.4685106 2.9194088 2.183286 8.261721
000030 0f 00 4d 40 a7 5c 1a 40 06 d2 2e 40 97 02 44 40
       3.2031286 2.411905 2.7315688 3.062658

sequential/time_distributed_4/batch_normalization_1/FusedBatchNormV31 f4 [16]
000000 8f 92 1f bf 0b 18 3c bf 0a 3e 27 bf ef 00 33 bf
       -0.62333006 -0.73474187 -0.6532904 -0.699233
000010 d8 8b 2d bf 93 12 cd be 32 d8 11 bf b3 3d 3a bf
       -0.6779151 -0.40053234 -0.5697051 -0.72750396
000020 52 fe 12 bf 10 9d 03 bf be c4 18 bf a4 4b 2b bf
       -0.5741931 -0.51411533 -0.59675205 -0.66912293
000030 84 44 1f bf 00 96 03 bf 3b 47 25 bf e9 1b 17 bf
       -0.6221392 -0.51400757 -0.64561814 -0.5902696

sequential/time_distributed_7/batch_normalization_2/FusedBatchNormV3 f4 [32]
000000 b5 e5 ab 40 b6 e7 f1 3f 42 f2 06 40 47 49 85 40
       5.3717904 1.8898838 2.1085362 4.165195
000010 9e fb ce 40 17 b6 d0 40 52 bc a8 40 be 16 8f 40
       6.468215 6.522228 5.2729883 4.471526
000020 98 56 f0 40 4d 0c 8b 40 53 56 ff 40 6b 9c a7 40
       7.5105705 4.3452516 7.9792876 5.237844
000030 4a a0 05 40 09 89 85 40 6a 80 0a 41 dd 8d eb 40
       2.0879083 4.172978 8.656351 7.3610673
000040 cd cd ae 40 32 e9 09 40 74 08 26 41 64 8a 72 40
       5.462622 2.154858 10.377064 3.7896967
000050 87 c0 02 41 c5 50 32 40 88 49 47 40 3a b6 b4 40
       8.172004 2.7861798 3.113863 5.6472445
000060 f0 3b a6 40 34 83 ac 40 8b 34 97 40 b5 61 93 40
       5.1948166 5.391016 4.725164 4.605677
000070 2d db ff 3f e9 7a 20 40 18 71 f9 40 3f 96 ab 40
       1.9988762 2.5075018 7.7950554 5.3620906

sequential/time_distributed_7/batch_normalization_2/FusedBatchNormV31 f4 [32]
000000 ef 54 cd be 01 d3 38 bf 6f b6 08 bf 95 60 fc be
       -0.40103862 -0.72196966 -0.5340337 -0.49292436
000010 78 bf af be 80 87 df be 7d 26 ed be 94 74 15 bf
       -0.34325767 -0.43658066 -0.46318427 -0.5838101
000020 bb d5 be be 42 30 df be 0a f3 91 be 45 5d 32 bf
       -0.37272438 -0.43591505 -0.28505737 -0.6967357
000030 e9 59 37 bf 80 db cc be be 6b a8 be 5a 4e ae be
       -0.71621567 -0.40011215 -0.328947 -0.34044152
000040 7f 7a 1f bf ef ae 1b bf cb 11 b1 be 62 56 13 bf
       -0.6229629 -0.608138 -0.34583887 -0.57553685
000050 77 8d b0 be 0a 9d 2d bf a8 32 34 bf 22 48 e9 be
       -0.3448293 -0.6781775 -0.70389795 -0.45562845
000060 69 f0 ee be c4 4e de be cd 93 e2 be 76 e3 38 bf
       -0.46667793 -0.43419468 -0.44253388 -0.7222208
000070 bd 11 ff be 9c 40 4b bf bf 92 ad be 38 36 12 bf
       -0.4981822 -0.7939546 -0.3390102 -0.5711398

sequential/dense/MatMul f4 [8, 16]
000000 7a 19 7b be 2c 29 00 3f 15 0a 17 bf ab 4f 38 3c
       -0.24521437 0.50062823 -0.5899976 0.011249463
000010 de f1 b2 be 4d 89 d7 3d f6 d8 8f be 2b 49 37 3e
       -0.34950155 0.10524235 -0.28095216 0.17899005
000020 4e 8d cd be 44 58 40 be 28 84 5a 3e b1 fa 41 be
       -0.4014687 -0.1878367 0.21339476 -0.18943287
000030 3a da f2 be 8b 85 b0 bb 4c b3 1e bd 65 bd f8 bd
       -0.4743212 -0.0053870133 -0.03874521 -0.12145499
000040 e0 e5 73 be 67 d9 e3 be ec 2e 14 3e 89 fa aa 3e
       -0.23818159 -0.44501802 0.14471024 0.33394268
000050 17 f6 de 3e ed e3 62 be 46 24 4a 3d fd e7 84 3e
       0.43547127 -0.2215726 0.049351 0.25958243
000060 fc 51 ae bd ba 1b e1 3e 38 b1 2e be a6 c0 a1 3e
       -0.08511731 0.43966466 -0.17059791 0.31592292
000070 6d b1 7a bd 9f 7c bb be f0 f2 ce bd bf 17 19 be
       -0.061204363 -0.36618516 -0.101049304 -0.14950465
000080 1b 14 b8 3e 0a 45 e3 3c 18 5e 98 3e 40 50 da be
       0.3595284 0.027742881 0.29759288 -0.4263935
000090 f3 ca e2 be ff d0 9b 3e e5 e1 1f 3f 9c a3 df 3e
       -0.44295463 0.3043289 0.6245406 0.43679512
0000a0 87 1d 20 3f ed c7 b6 3c 15 a6 63 be 05 1d 80 be
       0.62545055 0.022312129 -0.22231324 -0.2502214
0000b0 b6 64 b4 bd 22 12 e1 3e 67 ef 9d 3e dd 2a d9 be
       -0.088082716 0.43959147 0.30846712 -0.42415515
0000c0 88 3b dd 3e 20 a1 00 bf 83 8c ce 3e aa 5c 79 3e
       0.4320948 -0.5024586 0.40341577 0.24351755
0000d0 2e c1 d0 be 6f 18 de 3c 7b 22 af 3e dc b5 68 bb
       -0.40772384 0.02711126 0.34205994 -0.0035508787
0000e0 db a8 da 3e 28 8a 94 be 82 64 c9 be 86 ec ae 3e
       0.42706951 -0.29011655 -0.39334494 0.34164828
0000f0 32 6b 98 be 28 eb 5c bd 69 6d a1 3e 91 6d 32 be
       -0.29769284 -0.0539352 0.31528786 -0.17424609
000100 b9 59 26 3e 58 34 f5 3e 99 17 d0 bc cf 42 9d 3e
       0.16245164 0.47891498 -0.025401877 0.30715033
000110 d8 65 40 3e 64 d2 d4 be 27 9c 81 bd 0c 0b 9a bd
       0.1878885 -0.41566765 -0.06328612 -0.07521638
000120 78 43 1d bf 37 fb dd be e7 d4 84 be 76 bc 19 bf
       -0.61431074 -0.43355724 -0.25943682 -0.60053194
000130 18 53 ef be 1e 83 2d bd c8 78 0a bf 81 3b 83 3e
       -0.46743083 -0.04236137 -0.5409055 0.25631335
000140 2f ed 59 3d 77 0c 61 3e 3d aa 9f be ba af c1 3e
       0.05320471 0.21977411 -0.3118457 0.3782938
000150 13 57 9e be 8b a9 b9 be 21 e4 4f bd bf 6e 4e be
       -0.30925807 -0.36262164 -0.05075467 -0.20159434
000160 84 7c 89 3d 11 0b 50 3d c2 c9 08 be a7 de 1f be
       0.067132026 0.050791804 -0.13358214 -0.15612279
000170 c2 cb b9 be 2e b0 9b be 3e 17 a3 be 89 37 40 3e
       -0.36288267 -0.30407852 -0.3185367 0.18771185
000180 ec 73 d6 be a3 39 bd be 51 92 b0 3d 47 25 e8 3d
       -0.41885316 -0.36958036 0.08621658 0.11335235
000190 ac 21 ee be 37 17 66 3e 0b e5 aa 3e 20 96 72 be
       -0.46510065 0.22469793 0.3337787 -0.2369008
0001a0 0a 15 84 be fb 49 47 3d 73 9e 94 bd be 9a 9c be
       -0.25797302 0.048654538 -0.07256784 -0.3058681
0001b0 b9 16 8b 3e 27 c7 13 3f 63 aa 94 be 53 c0 1d be
       0.27165774 0.5772576 -0.29036245 -0.15405397
0001c0 3c 01 24 3e 42 7d 4a 3e d1 d4 06 3e 3a 96 13 3e
       0.16016096 0.19774345 0.1316712 0.14412776
0001d0 49 80 3f 3e 9e 24 b2 be 89 b5 1a bf 63 6f 6b 38
       0.1870128 -0.34793562 -0.6043325 5.6132103e-05
0001e0 24 52 8e 3e a8 01 1d bf c8 f3 e1 bd 56 69 61 be
       0.27797043 -0.6133065 -0.11032826 -0.22012839
0001f0 f5 b2 4e be 06 cf b4 be 01 62 a2 3e 8e fa 18 bc
       -0.20185454 -0.35314196 0.31715396 -0.009337081

sequential/dense_1/MatMul f4 [1, 8]
000000 f7 2f f3 be 15 76 90 bd ae fa 4a 3f b9 a9 fd 3e
       -0.47497532 -0.07053772 0.79288757 0.4954355
000010 38 88 3b bf c7 ac 3e bf 69 bf 9b 3e 15 55 6d be
       -0.7325473 -0.7448239 0.30419472 -0.23176987

sequential/lstm/Read_2/ReadVariableOp1 f4 [64]
000000 2f ad 5b 3d 57 4d 9c 3d c7 cd 07 3e 82 b7 d8 3d
       0.053631958 0.07631939 0.13262092 0.10581876
000010 fe 56 83 3d cc 43 0d 3e a1 26 f9 3d e9 9d 0e bd
       0.06413077 0.13795394 0.12165571 -0.034818564
000020 5c 08 03 3e b3 a0 9f 3d 3a 46 d3 3c f0 5b 91 3d
       0.12796158 0.07794323 0.025790323 0.07097614
000030 71 56 73 3d 57 c2 50 3d cf b9 d6 3c ea 0e 03 3e
       0.05940861 0.050966587 0.026211647 0.12798658
000040 6e 83 81 3f 0a 26 70 3f 8e 12 66 3f b3 01 6a 3f
       1.0118234 0.93808043 0.8987206 0.9140884
000050 7e 41 85 3f 1c 7b 69 3f 2b 58 6c 3f 4b be 82 3f
       1.0410612 0.91203475 0.92322034 1.0214323
000060 2c 35 68 3f fb 39 85 3f b6 ce 85 3f fa 7c 6c 3f
       0.90706134 1.0408319 1.0453708 0.923782
000070 c7 72 84 3f bd 09 72 3f b2 53 7e 3f 1b 4e 67 3f
       1.0347527 0.9454611 0.9934646 0.90353554
000080 ab a0 2a 3d c4 e7 97 3c 6d 09 db bc 35 7c 5e 3b
       0.04165713 0.018543132 -0.026737893 0.0033948545
000090 39 08 0e bd 1f 8b 31 bc 14 d5 c8 bc 51 fd a4 3c
       -0.03467581 -0.010836392 -0.024515666 0.020140322
0000a0 b6 76 2d bd cd e8 2b bd ad 21 3c bd 7a 39 19 bd
       -0.04234954 -0.041970063 -0.045930553 -0.03740833
0000b0 cc dd ce bc fb 3e dd bc bd 12 2f bd 62 3b 89 3c
       -0.025252245 -0.02700757 -0.04274248 0.016751949
0000c0 d2 46 8c 3c ec e1 40 3d 0f dc 14 3e a8 1d e8 3d
       0.017123614 0.047090456 0.1453707 0.113337815
0000d0 38 37 4f 3d 21 c3 0d 3e 88 b1 fe 3d 8b 8e 6f bd
       0.05058977 0.13843967 0.12436205 -0.05848555
0000e0 e0 b3 00 3e 2a 1d ab 3d 52 3a 0b bc e5 d4 92 3d
       0.12568617 0.08355172 -0.008497791 0.07169513
0000f0 2f 4f be 3c 4c 64 fc 3b 96 3c ab 3b d1 72 00 3e
       0.023231117 0.007702386 0.0052257283 0.12543799

while/MatMul_11 f4 [64, 16]
000000 80 eb 11 be 1e 64 84 bd ee af 46 3d 30 6c 9e 3b
       -0.14249992 -0.06464408 0.048507623 0.0048346743
000010 79 05 85 bd 84 71 7a 3d f3 81 93 bd ff 1d 2b be
       -0.064951845 0.061143413 -0.0720252 -0.16710661
000020 92 5e 54 be 98 6f ee bd f8 be 77 3d 5c 33 5e be
       -0.207392 -0.116423786 0.060484856 -0.2169928
000030 ac e8 10 be d9 84 73 3e 13 01 0c be 55 df 1e be
       -0.14151257 0.23781146 -0.13672285 -0.15514882
000040 56 a5 04 3d e6 ab 69 be dd f9 35 3e cb 06 04 3e
       0.03238424 -0.2281948 0.17771097 0.12893216
000050 8b a8 90 be fb a3 19 bd 4d 14 21 3d 51 1f fe 3d
       -0.28253588 -0.0375099 0.039326 0.12408317
000060 55 14 00 3d 74 24 e2 3d aa e4 c2 bd 0b a6 93 bc
       0.03126939 0.11042109 -0.095162705 -0.018023511
000070 7a 75 8a 3d ae ea 94 bd 34 eb c5 bc 15 20 06 3d
       0.06760688 -0.07271324 -0.024160005 0.03274544
000080 69 4f ff bd dc ec 97 3e 4e 8b 54 3d 88 c4 e3 3d
       -0.12466318 0.29672897 0.051890664 0.1112147
000090 d8 cd 3e be 4c 36 7b bd 7e 58 f7 3d 65 f9 6f 3e
       -0.1863321 -0.06133108 0.120774254 0.2343498
0000a0 46 1d 1d 3e 2f b6 af be d5 0a 55 be f6 cb e6 3d
       0.15343198 -0.34318683 -0.20804913 0.11269371
0000b0 ce e7 5d 3d b5 19 dd 3d eb eb 7d bc 95 8e 9b 3d
       0.054176144 0.10795919 -0.015498142 0.07595555
0000c0 a7 6a 8f 3e eb 3c 6a 3e 9a 1c 1d 3e ea e2 17 3c
       0.28011057 0.22874801 0.15342942 0.009270409
0000d0 ef 2b 89 be 5f b1 38 bd 85 e1 f5 3c ff 8e 20 3e
       -0.2679133 -0.04509103 0.030014763 0.15679549
0000e0 28 f9 32 3e 24 b2 1b bd 33 cf 58 be ad 67 3e 3e
       0.17477858 -0.038011685 -0.2117279 0.18594237
0000f0 07 e5 b6 be 17 e7 85 3e 03 9a 01 bd 51 94 3c 3b
       -0.3572161 0.2615287 -0.031641018 0.0028774927
000100 3f 09 b8 3d ee bf 80 3d a2 ad 80 bd cf 56 51 3c
       0.089861386 0.06286608 -0.06283118 0.012777044
000110 e1 ba ce bd b5 c5 8b bc d6 4a e1 3d 35 9e 20 be
       -0.10094238 -0.017062047 0.11000602 -0.15685351
000120 89 d1 8f 3d 1f f9 46 be 38 22 a6 bd b3 71 cd bc
       0.070223875 -0.1943097 -0.081119955 -0.02507863
000130 b1 e5 b4 be b5 34 bd 3d 1b cc b0 bd a1 42 bc 3c
       -0.3533149 0.09238569 -0.0863268 0.02298099
000140 2e 80 c3 3d 52 92 a4 3e 6c 6d 2b bd 5c f2 2e 3e
       0.09545933 0.32142884 -0.0418524 0.1708464
000150 e4 f1 ab bc 37 a4 55 3d 6a 5f 0c 3e 65 ba 8b bd
       -0.020989366 0.05215856 0.13708273 -0.06822661
000160 19 a2 79 3e 19 be 9a be 9b df 36 be 0d 1a 5d 3e
       0.24378242 -0.30223158 -0.17858736 0.21591969
000170 d9 9a fe bd 8d 00 77 bb a2 f8 3e be e1 20 59 be
       -0.124318786 -0.0037689537 -0.18649533 -0.21203949
000180 7d bb d0 3d f6 6d 52 3e 4e 75 b2 be e4 b3 5a bd
       0.101920106 0.2054976 -0.3485512 -0.053394213
000190 6f e6 17 be 1e c4 22 3e 24 fd 82 bc 01 40 71 3c
       -0.14833997 0.15895125 -0.015989847 0.014724732
0001a0 c5 24 54 3e 60 b8 cc be 81 68 c2 bd 95 81 2f 3e
       0.20717151 -0.39984417 -0.09492589 0.17139275
0001b0 b7 17 d3 bd 1b bd 13 3e d8 b9 af bc 03 5b 2e 3e
       -0.103072576 0.14427607 -0.021450922 0.17026906
0001c0 71 5d 66 3d ba e8 14 3e b5 6f 91 bc 2f ae 45 3e
       0.056241456 0.14541903 -0.017753461 0.19304727
0001d0 cf 2d b0 bc 3a 0c 62 3e 2a 1b 82 bd f3 3b a0 bd
       -0.021506218 0.22074977 -0.063528374 -0.078239344
0001e0 c0 f5 85 bd df 5e b3 3c 65 0c 13 3d 18 21 4e be
       -0.06541014 0.021895824 0.035900492 -0.20129812
0001f0 91 0b c0 3d e3 20 4d 3d 13 ff 3b 3c 13 0a b7 bd
       0.09377206 0.05008019 0.011474389 -0.089374684
000200 43 83 1f 3e 56 e7 7e 3e af da 6f bd 6b a5 9c 3c
       0.15577416 0.24892935 -0.058558162 0.019121846
000210 66 d6 b0 be fd 42 d1 3d 52 40 d4 3e 18 58 ba 3d
       -0.34538573 0.10217855 0.41455323 0.09098834
000220 d9 ed 56 be 4e 59 b3 bc 50 62 ac 3c 8b 02 33 3e
       -0.20989169 -0.02189317 0.021042973 0.17481439
000230 46 ac 62 be 7c ba 38 3e b6 d4 74 bd 3e 81 c6 3d
       -0.2213603 0.18039888 -0.05977317 0.0969262
000240 d5 90 58 3e c1 e5 13 3e e0 01 97 bd 2c 25 8e bd
       0.21148999 0.14443113 -0.073734045 -0.06940684
000250 c7 5e c1 bd fe c2 80 3c 88 ea e3 3d 10 cd 14 3e
       -0.094419055 0.01571798 0.11128718 0.1453135
000260 fd 40 22 bd d5 87 ad bd ae ab 27 bd 0f 49 19 3e
       -0.03961276 -0.084731735 -0.04093521 0.14969276
000270 e6 8b 20 bd 96 93 0d 3e 63 1f 86 be 74 63 a6 3d
       -0.039195918 0.13825831 -0.2619582 0.08124438
000280 9b 5f 83 3e f4 14 e0 3d 53 fb 53 bc e1 93 12 be
       0.2565888 0.109414965 -0.012938338 -0.14314224
000290 df 9f e6 bd e5 0b 83 be 33 51 44 3e fa 93 18 be
       -0.11260962 -0.25595012 0.191716 -0.14900199
0002a0 3a 3e 3a 3d 03 25 6e 3d 83 a7 b1 3c 8b e7 ed bd
       0.0454695 0.058140766 0.021686321 -0.11616429
0002b0 4c 80 22 be e6 2d 1a be 99 89 05 3e 8e 53 7f 3d
       -0.15869254 -0.15056571 0.1304077 0.062335543
0002c0 a7 82 74 ba af 8d 28 bd a0 4c 5f bd 66 46 a9 3d
       -0.000932733 -0.041150745 -0.054516435 0.082653806
0002d0 3a 6a 09 bd d2 f8 a0 3d 18 d7 94 bd 59 b3 97 3d
       -0.03354857 0.07859959 -0.072675884 0.07407255
0002e0 35 9d 30 bd 54 21 33 be 17 4c 83 be 43 8e 4c 3e
       -0.043118674 -0.17493182 -0.2564399 0.19976144
0002f0 c4 60 51 be 56 fd 08 3e f8 a5 81 be 5e 39 10 3e
       -0.2044707 0.1337789 -0.25321937 0.14084384
000300 c6 88 36 be a0 a1 e1 3d 1e 05 6b 3d 70 49 00 bd
       -0.17825612 0.11017156 0.057377927 -0.031320035
000310 6c f0 8a be 43 af 8c 3e 4e c4 13 3e 48 b5 54 3d
       -0.27136552 0.27477464 0.14430353 0.051930696
000320 78 d4 88 3d 76 03 19 3d 47 30 da 3d 3e 31 47 3e
       0.0668115 0.037356816 0.106537394 0.19452378
000330 b3 f6 8b bd f2 5c a9 3e ae 98 6b 3c 0d 11 22 be
       -0.068341635 0.33078724 0.014379663 -0.15826817
000340 80 03 25 3e 81 7a f1 3c 0a 79 0b be b9 57 38 3d
       0.16114616 0.02947736 -0.13620391 0.045005534
000350 a7 72 65 be a6 4e cf bd f2 bb 7a 3d 4c 38 98 3d
       -0.22407018 -0.10122423 0.061214395 0.07432613
000360 72 b1 4d 3d 62 b1 96 be 7b d3 52 be 5f fd 21 3d
       0.050218053 -0.29432207 -0.20588486 0.039548274
000370 ad da 0d be 47 45 7c bd eb 1a cc be 40 84 89 bd
       -0.1385295 -0.061589506 -0.39864287 -0.06714678
000380 cc d4 9f 3d 6f e5 4a 3d 0b 48 dc 3c 03 d8 16 3e
       0.0780426 0.04953521 0.026889822 0.1473084
000390 37 53 1d 3d 9e a4 35 3e 92 11 35 3e ce 35 a3 bd
       0.038409438 0.17738578 0.17682484 -0.07969247
0003a0 e5 b3 60 bc 75 4a 21 3b e7 b2 1f be f3 8e 63 3c
       -0.013714765 0.002461103 -0.1559559 0.013889062
0003b0 97 75 dc 3a 24 bf 38 3e 17 af ac 3e 1e c0 a1 be
       0.0016819712 0.18041664 0.33727333 -0.31591886
0003c0 b7 49 ad 3c 27 81 a3 3e c9 29 26 be 5a c8 34 bd
       0.021153314 0.31934473 -0.16226877 -0.044136383
0003d0 28 82 6d be fd 1f 8e bc 9b 2f 38 3e f1 e3 d1 3b
       -0.23194182 -0.017349238 0.1798691 0.0064053466
0003e0 4a a2 5d 3c 18 cb 85 be ad 2a ce bd 14 e4 8e bd
       0.013527462 -0.2613151 -0.100667335 -0.06977096
0003f0 2e 6e 0a be fb 44 8b 3e b7 c2 53 bd e0 ea 53 be
       -0.13518593 0.27201065 -0.051699366 -0.20695066

while/MatMul f4 [64, 32]
000000 4b 38 2d 3e e9 5b 97 3e aa 87 bb bd 9d 40 25 3e
       0.16916005 0.2956231 -0.09156735 0.1613793
000010 8d 30 ce 3c c4 23 b0 bc 48 36 01 bc e8 c5 29 be
       0.025169635 -0.02150143 -0.007886477 -0.16579401
000020 98 ad 9c 3d c2 ef ed 3d 8e 0c a2 3e 3c d6 e5 3b
       0.07650298 0.11617996 0.31650203 0.007014064
000030 c9 ab b3 3d 04 69 16 3e fe f9 51 3c cf 68 98 bd
       0.08773 0.14688498 0.01281595 -0.07441866
000040 a7 03 3f 3d 45 9a 55 bd 5e 63 7f be a9 2b 8d bd
       0.046634343 -0.052149076 -0.2494025 -0.06893093
000050 03 d1 cf 3c 21 03 8b bb 3c 78 86 3e 8e 2c 22 3e
       0.02536822 -0.0042423164 0.26263607 0.15837309
000060 bc 2e 44 3e 21 53 3e 3e 94 1e 84 3e 33 10 0e 3d
       0.19158453 0.18586399 0.2580458 0.034683418
000070 69 57 3e bd 67 fe 38 3e f5 74 1b 3d aa 7c eb bd
       -0.04647008 0.18065797 0.037953336 -0.11498387
000080 1a 4c 81 bd 2a 31 cd bb 99 09 34 bd db 00 15 3e
       -0.06313343 -0.0062619643 -0.043954466 0.14551108
000090 18 9b d2 3b ca cf 54 3e 56 04 04 be b7 1e 41 bd
       0.00642718 0.2078239 -0.12892279 -0.047148433
0000a0 aa 30 91 be 48 49 00 be e0 8b 0e bc 28 54 a9 3c
       -0.2835744 -0.12527955 -0.008700341 0.020670012
0000b0 2f 14 a8 3d 22 da 9d 3c c6 80 3a 3e 92 d6 8f bd
       0.08206975 0.019269053 0.18213186 -0.07023348
0000c0 19 fd bd 3d 1c cd 20 3e b1 30 25 3e 50 71 62 3e
       0.0927679 0.15703243 0.16131856 0.22113538
0000d0 24 65 7d 3e cb 17 f2 3d 4a 77 b4 3e 6c 02 ae 3d
       0.24745613 0.118209444 0.3524726 0.08496556
0000e0 56 28 c3 3d 67 7f 37 3e 67 4c 3a bd 5a 31 d0 3d
       0.09529178 0.17919694 -0.04548302 0.10165663
0000f0 2b 6d 28 bd 33 b6 75 3e 17 ab 90 bd 3b a2 0a bc
       -0.041119736 0.23995285 -0.07063883 -0.00846153
000100 bd cf 9d 3e 84 87 80 bc 46 b5 1c 3e e7 72 6c bd
       0.30822554 -0.015689619 0.15303525 -0.057726767
000110 b9 e5 b9 3e 4e ea 89 3c 0b 91 87 3e 9f 9b 70 3e
       0.36308077 0.016835358 0.26477847 0.23496865
000120 0c 3a 31 3e d3 d0 4c 3e 99 9b a0 3e 2f 8e 95 3e
       0.173073 0.20001535 0.31368712 0.2921004
000130 5f 27 3f 3e 66 63 af 3e 88 15 7f 3c 83 88 70 3e
       0.18667363 0.34255522 0.015569098 0.23489575
000140 f9 1b 60 3e 86 dd 49 3e 48 c0 08 be be 81 b7 3d
       0.2188567 0.1971341 -0.133546 0.08960293
000150 25 a8 9d bd b9 28 c9 3d ff c2 4d 3e f6 da 0c be
       -0.07698087 0.0982222 0.20093916 -0.13755402
000160 ef aa 5b 3b 0f 60 96 bd 27 19 e1 bd 1c c2 8a bd
       0.0033518632 -0.073425405 -0.109911256 -0.06775305
000170 38 ce a2 3e 43 97 86 bd 7f 53 88 bd 8d b9 9f 3e
       0.31797957 -0.0657182 -0.066565506 0.31196252
000180 be 84 67 3e 81 80 57 3e d1 e0 18 be 5d 30 93 3d
       0.22609231 0.21045114 -0.1492951 0.07186959
000190 20 21 a1 3e a1 c3 03 bc c4 c9 8d bd be cf 2e bd
       0.31470585 -0.008042247 -0.06923249 -0.042678587
0001a0 11 26 03 be e9 46 af 3e df 0a 9f 3e ba 47 68 3d
       -0.1280749 0.34233788 0.3106298 0.05670903
0001b0 7a 98 95 3e fc 99 91 3c eb f3 29 3e db 82 f8 3c
       0.29217893 0.01777362 0.16596954 0.030335834
0001c0 c1 31 03 3c 99 42 4e be 63 ef dd bd f2 a5 10 be
       0.008007468 -0.20142592 -0.10836675 -0.14125803
0001d0 a1 3b 18 3d 39 4e 2f be 89 5a 80 3e d4 8d 31 3d
       0.03716624 -0.17119683 0.25069073 0.04334815
0001e0 c1 fc a3 3b bb a4 5f 3e 4a cf 1e 3e 37 4d a3 3e
       0.005004496 0.21840183 0.15508762 0.31894848
0001f0 91 75 2a bd 0d bd 36 be d3 94 3e 3e 5d 92 05 3e
       -0.041616026 -0.17845555 0.1861146 0.13044114
000200 94 fe c1 bd 95 56 cc 3d a9 6b bb bd 14 6f fa bd
       -0.09472385 0.09977452 -0.09151394 -0.12228218
000210 28 35 d4 bd a4 db 0d be 87 d9 0f 3e dc a4 8e 3d
       -0.10361701 -0.13853317 0.14047824 0.06965038
000220 fe 48 38 be 3c d7 7f bd 0e 2a 45 3e ed 75 05 3e
       -0.17996594 -0.062461123 0.19254324 0.13033266
000230 ba ef 67 3e 31 e9 cd bd 4c 74 67 3d f1 7c 3c 3e
       0.22650042 -0.10054243 0.056507394 0.18407036
000240 1f 49 9f 3b 58 51 03 be 27 cf b2 3d 09 a6 1e 3e
       0.0048610116 -0.12823999 0.087309174 0.15493025
000250 5e d8 75 3e 77 7d 95 bd 17 77 16 3c ee f8 91 3e
       0.24008319 -0.07299321 0.009183667 0.2851023
000260 ad ad 2d be 10 fd 6e 3e cb 4a cb bd 0d 1f df bd
       -0.16960783 0.23338723 -0.09926375 -0.10894594
000270 b9 82 bf 3d e4 8e 41 3e d7 ee 3a 3e ea 4a 66 be
       0.09351105 0.18902165 0.18255173 -0.22489515
000280 73 32 da bc 16 c3 45 3e 2b 04 a8 bd e9 62 86 be
       -0.026635384 0.193127 -0.0820392 -0.26247337
000290 80 06 7f bd 13 26 c5 bc 86 a6 1c 3e 50 56 d0 bb
       -0.06226206 -0.024066007 0.15297899 -0.0063579455
0002a0 de d7 29 3d 2b 6a c5 3d da a7 09 3e fa 54 ab bc
       0.041465633 0.096393906 0.13442937 -0.020914543
0002b0 1f 9f 9d bd cc 40 a1 3e fd b8 88 3e 89 34 10 3e
       -0.076963656 0.3149475 0.26703635 0.1408254
0002c0 0c 11 a6 3e 73 67 78 3b 19 1f dd 3d 62 e2 a5 3e
       0.3243488 0.0037903457 0.10796947 0.3239928
0002d0 8c d5 20 3d ef 16 fa bc 17 d0 2e 3e 66 c1 a8 3c
       0.039266154 -0.030528514 0.17071567 0.020600032
0002e0 3c db da bd a0 cd 01 bd f8 ba 07 3e 07 1b b6 3e
       -0.10686347 -0.03169024 0.13254917 0.35567495
0002f0 3a a3 89 3e 20 29 69 3e 89 a1 80 3e 85 ee e0 bd
       0.26882344 0.22769594 0.25123242 -0.10982994
000300 38 30 d7 3d 15 72 52 3e c0 d3 00 bc e2 31 9c be
       0.10507244 0.20551331 -0.007862985 -0.30506808
000310 8c c2 94 3e f7 74 e5 3d 16 d4 83 bd c9 83 00 3e
       0.29054677 0.1120395 -0.064369366 0.12550272
000320 e9 fe 9c 3e c0 30 f3 3d 11 3d b6 bd aa 90 97 bd
       0.3066323 0.11874533 -0.08898366 -0.07400639
000330 e6 55 8e 3d 32 98 3f 3e 2e 52 3e 3e 53 85 b1 3e
       0.069499776 0.18710402 0.18586037 0.3467203
000340 25 6d e1 bd 1f 46 fe bd 83 62 80 be 72 90 bb 3e
       -0.11007146 -0.12415718 -0.25075158 0.3663364
000350 9a 5f 16 3e 34 e7 93 3e 1c 01 bf 3d 2c 8b da bd
       0.14684907 0.2888733 0.093263835 -0.10671076
000360 f5 9e 8a be 08 14 8b 3e 17 9c 64 3a 03 7d 9d 3e
       -0.270744 0.2716372 0.0008720769 0.3075944
000370 d8 4f b1 3d 4c 54 45 3e d8 1d 84 bd 7f 7e a8 bb
       0.08657807 0.19270438 -0.06451005 -0.0051420326
000380 fd 5a 87 be 6c 37 4a 3d d0 99 2e bd e6 9e 7e 3c
       -0.26436606 0.04936926 -0.042627156 0.015540814
000390 da 23 a5 3d de 42 72 3e 13 02 0e be 9c cc e2 bd
       0.08063479 0.2365832 -0.13867979 -0.110741824
0003a0 41 97 95 ba 6c fe 8a be ad c2 8d bd 71 ae 92 be
       -0.0011412875 -0.27147233 -0.06921897 -0.28648713
0003b0 8e e1 23 3e 2d d4 ca bd 1c b4 7c be 3f 18 93 3d
       0.16004011 -0.099037506 -0.24678081 0.07182359
0003c0 b0 13 5c be 45 d8 59 3d 82 34 2e 3e 00 14 58 bd
       -0.21491885 0.053184766 0.17012218 -0.05275345
0003d0 4b 06 31 3e ab 35 9d 3e 55 d5 54 3e 6c 6a 01 3e
       0.17287557 0.30705008 0.20784505 0.12638253
0003e0 65 bb e0 bd 92 c9 e9 bd eb 3a 61 be 01 bf 05 3d
       -0.10973243 -0.114153996 -0.21995132 0.03265286
0003f0 1b eb 17 be 21 b4 8a 3e 4a 28 93 be 05 bc 5c 3e
       -0.1483578 0.27090552 -0.28741676 0.21556099
